…
auxiliary_head.conv_seg.bias - torch.Size([11]): 
NormalInit: mean=0, std=0.01, bias=0 

auxiliary_head.convs.0.conv.weight - torch.Size([256, 256, 3, 3]): 
The value is the same before and after calling `init_weights` of EncoderDecoder  

auxiliary_head.convs.0.bn.weight - torch.Size([256]): 
The value is the same before and after calling `init_weights` of EncoderDecoder  

auxiliary_head.convs.0.bn.bias - torch.Size([256]): 
The value is the same before and after calling `init_weights` of EncoderDecoder  
2021-10-25 02:37:29,088 - mmseg - INFO - EncoderDecoder(
  (backbone): CSWin(
    (stage1_conv_embed): Sequential(
      (0): Conv2d(3, 64, kernel_size=(7, 7), stride=(4, 4), padding=(2, 2))
      (1): Rearrange('b c h w -> b (h w) c', h=56, w=56)
      (2): LayerNorm((64,), eps=1e-05, elementwise_affine=True)
    )
    (norm1): LayerNorm((64,), eps=1e-05, elementwise_affine=True)
    (stage1): ModuleList(
      (0): CSWinBlock(
        (qkv): Linear(in_features=64, out_features=192, bias=True)
        (norm1): LayerNorm((64,), eps=1e-05, elementwise_affine=True)
        (proj): Linear(in_features=64, out_features=64, bias=True)
        (proj_drop): Dropout(p=0.0, inplace=False)
        (attns): ModuleList(
          (0): LePEAttention(
            (get_v): Conv2d(32, 32, kernel_size=(3, 3), stride=(1, 1), padding=(1, 1), groups=32)
            (attn_drop): Dropout(p=0.0, inplace=False)
          )
          (1): LePEAttention(
            (get_v): Conv2d(32, 32, kernel_size=(3, 3), stride=(1, 1), padding=(1, 1), groups=32)
            (attn_drop): Dropout(p=0.0, inplace=False)
          )
        )
        (drop_path): Identity()
        (mlp): Mlp(
          (fc1): Linear(in_features=64, out_features=256, bias=True)
          (act): GELU()
          (fc2): Linear(in_features=256, out_features=64, bias=True)
          (drop): Dropout(p=0.0, inplace=False)
        )
        (norm2): LayerNorm((64,), eps=1e-05, elementwise_affine=True)
      )
    )
    (merge1): Merge_Block(
      (conv): Conv2d(64, 128, kernel_size=(3, 3), stride=(2, 2), padding=(1, 1))
      (norm): LayerNorm((128,), eps=1e-05, elementwise_affine=True)
    )
    (norm2): LayerNorm((128,), eps=1e-05, elementwise_affine=True)
    (stage2): ModuleList(
      (0): CSWinBlock(
        (qkv): Linear(in_features=128, out_features=384, bias=True)
        (norm1): LayerNorm((128,), eps=1e-05, elementwise_affine=True)
        (proj): Linear(in_features=128, out_features=128, bias=True)
        (proj_drop): Dropout(p=0.0, inplace=False)
        (attns): ModuleList(
          (0): LePEAttention(
            (get_v): Conv2d(64, 64, kernel_size=(3, 3), stride=(1, 1), padding=(1, 1), groups=64)
            (attn_drop): Dropout(p=0.0, inplace=False)
          )
          (1): LePEAttention(
            (get_v): Conv2d(64, 64, kernel_size=(3, 3), stride=(1, 1), padding=(1, 1), groups=64)
            (attn_drop): Dropout(p=0.0, inplace=False)
          )
        )
        (drop_path): DropPath()
        (mlp): Mlp(
          (fc1): Linear(in_features=128, out_features=512, bias=True)
          (act): GELU()
          (fc2): Linear(in_features=512, out_features=128, bias=True)
          (drop): Dropout(p=0.0, inplace=False)
        )
        (norm2): LayerNorm((128,), eps=1e-05, elementwise_affine=True)
      )
      (1): CSWinBlock(
        (qkv): Linear(in_features=128, out_features=384, bias=True)
        (norm1): LayerNorm((128,), eps=1e-05, elementwise_affine=True)
        (proj): Linear(in_features=128, out_features=128, bias=True)
        (proj_drop): Dropout(p=0.0, inplace=False)
        (attns): ModuleList(
          (0): LePEAttention(
            (get_v): Conv2d(64, 64, kernel_size=(3, 3), stride=(1, 1), padding=(1, 1), groups=64)
            (attn_drop): Dropout(p=0.0, inplace=False)
          )
          (1): LePEAttention(
            (get_v): Conv2d(64, 64, kernel_size=(3, 3), stride=(1, 1), padding=(1, 1), groups=64)
            (attn_drop): Dropout(p=0.0, inplace=False)
          )
        )
        (drop_path): DropPath()
        (mlp): Mlp(
          (fc1): Linear(in_features=128, out_features=512, bias=True)
          (act): GELU()
          (fc2): Linear(in_features=512, out_features=128, bias=True)
          (drop): Dropout(p=0.0, inplace=False)
        )
        (norm2): LayerNorm((128,), eps=1e-05, elementwise_affine=True)
      )
    )
    (merge2): Merge_Block(
      (conv): Conv2d(128, 256, kernel_size=(3, 3), stride=(2, 2), padding=(1, 1))
      (norm): LayerNorm((256,), eps=1e-05, elementwise_affine=True)
    )
    (norm3): LayerNorm((256,), eps=1e-05, elementwise_affine=True)
    (stage3): ModuleList(
      (0): CSWinBlock(
        (qkv): Linear(in_features=256, out_features=768, bias=True)
        (norm1): LayerNorm((256,), eps=1e-05, elementwise_affine=True)
        (proj): Linear(in_features=256, out_features=256, bias=True)
        (proj_drop): Dropout(p=0.0, inplace=False)
        (attns): ModuleList(
          (0): LePEAttention(
            (get_v): Conv2d(128, 128, kernel_size=(3, 3), stride=(1, 1), padding=(1, 1), groups=128)
            (attn_drop): Dropout(p=0.0, inplace=False)
          )
          (1): LePEAttention(
            (get_v): Conv2d(128, 128, kernel_size=(3, 3), stride=(1, 1), padding=(1, 1), groups=128)
            (attn_drop): Dropout(p=0.0, inplace=False)
          )
        )
        (drop_path): DropPath()
        (mlp): Mlp(
          (fc1): Linear(in_features=256, out_features=1024, bias=True)
          (act): GELU()
          (fc2): Linear(in_features=1024, out_features=256, bias=True)
          (drop): Dropout(p=0.0, inplace=False)
        )
        (norm2): LayerNorm((256,), eps=1e-05, elementwise_affine=True)
      )
      (1): CSWinBlock(
        (qkv): Linear(in_features=256, out_features=768, bias=True)
        (norm1): LayerNorm((256,), eps=1e-05, elementwise_affine=True)
        (proj): Linear(in_features=256, out_features=256, bias=True)
        (proj_drop): Dropout(p=0.0, inplace=False)
        (attns): ModuleList(
          (0): LePEAttention(
            (get_v): Conv2d(128, 128, kernel_size=(3, 3), stride=(1, 1), padding=(1, 1), groups=128)
            (attn_drop): Dropout(p=0.0, inplace=False)
          )
          (1): LePEAttention(
            (get_v): Conv2d(128, 128, kernel_size=(3, 3), stride=(1, 1), padding=(1, 1), groups=128)
            (attn_drop): Dropout(p=0.0, inplace=False)
          )
        )
        (drop_path): DropPath()
        (mlp): Mlp(
          (fc1): Linear(in_features=256, out_features=1024, bias=True)
          (act): GELU()
          (fc2): Linear(in_features=1024, out_features=256, bias=True)
          (drop): Dropout(p=0.0, inplace=False)
        )
        (norm2): LayerNorm((256,), eps=1e-05, elementwise_affine=True)
      )
      (2): CSWinBlock(
        (qkv): Linear(in_features=256, out_features=768, bias=True)
        (norm1): LayerNorm((256,), eps=1e-05, elementwise_affine=True)
        (proj): Linear(in_features=256, out_features=256, bias=True)
        (proj_drop): Dropout(p=0.0, inplace=False)
        (attns): ModuleList(
          (0): LePEAttention(
            (get_v): Conv2d(128, 128, kernel_size=(3, 3), stride=(1, 1), padding=(1, 1), groups=128)
            (attn_drop): Dropout(p=0.0, inplace=False)
          )
          (1): LePEAttention(
            (get_v): Conv2d(128, 128, kernel_size=(3, 3), stride=(1, 1), padding=(1, 1), groups=128)
            (attn_drop): Dropout(p=0.0, inplace=False)
          )
        )
        (drop_path): DropPath()
        (mlp): Mlp(
          (fc1): Linear(in_features=256, out_features=1024, bias=True)
          (act): GELU()
          (fc2): Linear(in_features=1024, out_features=256, bias=True)
          (drop): Dropout(p=0.0, inplace=False)
        )
        (norm2): LayerNorm((256,), eps=1e-05, elementwise_affine=True)
      )
      (3): CSWinBlock(
        (qkv): Linear(in_features=256, out_features=768, bias=True)
        (norm1): LayerNorm((256,), eps=1e-05, elementwise_affine=True)
        (proj): Linear(in_features=256, out_features=256, bias=True)
        (proj_drop): Dropout(p=0.0, inplace=False)
        (attns): ModuleList(
          (0): LePEAttention(
            (get_v): Conv2d(128, 128, kernel_size=(3, 3), stride=(1, 1), padding=(1, 1), groups=128)
            (attn_drop): Dropout(p=0.0, inplace=False)
          )
          (1): LePEAttention(
            (get_v): Conv2d(128, 128, kernel_size=(3, 3), stride=(1, 1), padding=(1, 1), groups=128)
            (attn_drop): Dropout(p=0.0, inplace=False)
          )
        )
        (drop_path): DropPath()
        (mlp): Mlp(
          (fc1): Linear(in_features=256, out_features=1024, bias=True)
          (act): GELU()
          (fc2): Linear(in_features=1024, out_features=256, bias=True)
          (drop): Dropout(p=0.0, inplace=False)
        )
        (norm2): LayerNorm((256,), eps=1e-05, elementwise_affine=True)
      )
      (4): CSWinBlock(
        (qkv): Linear(in_features=256, out_features=768, bias=True)
        (norm1): LayerNorm((256,), eps=1e-05, elementwise_affine=True)
        (proj): Linear(in_features=256, out_features=256, bias=True)
        (proj_drop): Dropout(p=0.0, inplace=False)
        (attns): ModuleList(
          (0): LePEAttention(
            (get_v): Conv2d(128, 128, kernel_size=(3, 3), stride=(1, 1), padding=(1, 1), groups=128)
            (attn_drop): Dropout(p=0.0, inplace=False)
          )
          (1): LePEAttention(
            (get_v): Conv2d(128, 128, kernel_size=(3, 3), stride=(1, 1), padding=(1, 1), groups=128)
            (attn_drop): Dropout(p=0.0, inplace=False)
          )
        )
        (drop_path): DropPath()
        (mlp): Mlp(
          (fc1): Linear(in_features=256, out_features=1024, bias=True)
          (act): GELU()
          (fc2): Linear(in_features=1024, out_features=256, bias=True)
          (drop): Dropout(p=0.0, inplace=False)
        )
        (norm2): LayerNorm((256,), eps=1e-05, elementwise_affine=True)
      )
      (5): CSWinBlock(
        (qkv): Linear(in_features=256, out_features=768, bias=True)
        (norm1): LayerNorm((256,), eps=1e-05, elementwise_affine=True)
        (proj): Linear(in_features=256, out_features=256, bias=True)
        (proj_drop): Dropout(p=0.0, inplace=False)
        (attns): ModuleList(
          (0): LePEAttention(
            (get_v): Conv2d(128, 128, kernel_size=(3, 3), stride=(1, 1), padding=(1, 1), groups=128)
            (attn_drop): Dropout(p=0.0, inplace=False)
          )
          (1): LePEAttention(
            (get_v): Conv2d(128, 128, kernel_size=(3, 3), stride=(1, 1), padding=(1, 1), groups=128)
            (attn_drop): Dropout(p=0.0, inplace=False)
          )
        )
        (drop_path): DropPath()
        (mlp): Mlp(
          (fc1): Linear(in_features=256, out_features=1024, bias=True)
          (act): GELU()
          (fc2): Linear(in_features=1024, out_features=256, bias=True)
          (drop): Dropout(p=0.0, inplace=False)
        )
        (norm2): LayerNorm((256,), eps=1e-05, elementwise_affine=True)
      )
      (6): CSWinBlock(
        (qkv): Linear(in_features=256, out_features=768, bias=True)
        (norm1): LayerNorm((256,), eps=1e-05, elementwise_affine=True)
        (proj): Linear(in_features=256, out_features=256, bias=True)
        (proj_drop): Dropout(p=0.0, inplace=False)
        (attns): ModuleList(
          (0): LePEAttention(
            (get_v): Conv2d(128, 128, kernel_size=(3, 3), stride=(1, 1), padding=(1, 1), groups=128)
            (attn_drop): Dropout(p=0.0, inplace=False)
          )
          (1): LePEAttention(
            (get_v): Conv2d(128, 128, kernel_size=(3, 3), stride=(1, 1), padding=(1, 1), groups=128)
            (attn_drop): Dropout(p=0.0, inplace=False)
          )
        )
        (drop_path): DropPath()
        (mlp): Mlp(
          (fc1): Linear(in_features=256, out_features=1024, bias=True)
          (act): GELU()
          (fc2): Linear(in_features=1024, out_features=256, bias=True)
          (drop): Dropout(p=0.0, inplace=False)
        )
        (norm2): LayerNorm((256,), eps=1e-05, elementwise_affine=True)
      )
      (7): CSWinBlock(
        (qkv): Linear(in_features=256, out_features=768, bias=True)
        (norm1): LayerNorm((256,), eps=1e-05, elementwise_affine=True)
        (proj): Linear(in_features=256, out_features=256, bias=True)
        (proj_drop): Dropout(p=0.0, inplace=False)
        (attns): ModuleList(
          (0): LePEAttention(
            (get_v): Conv2d(128, 128, kernel_size=(3, 3), stride=(1, 1), padding=(1, 1), groups=128)
            (attn_drop): Dropout(p=0.0, inplace=False)
          )
          (1): LePEAttention(
            (get_v): Conv2d(128, 128, kernel_size=(3, 3), stride=(1, 1), padding=(1, 1), groups=128)
            (attn_drop): Dropout(p=0.0, inplace=False)
          )
        )
        (drop_path): DropPath()
        (mlp): Mlp(
          (fc1): Linear(in_features=256, out_features=1024, bias=True)
          (act): GELU()
          (fc2): Linear(in_features=1024, out_features=256, bias=True)
          (drop): Dropout(p=0.0, inplace=False)
        )
        (norm2): LayerNorm((256,), eps=1e-05, elementwise_affine=True)
      )
      (8): CSWinBlock(
        (qkv): Linear(in_features=256, out_features=768, bias=True)
        (norm1): LayerNorm((256,), eps=1e-05, elementwise_affine=True)
        (proj): Linear(in_features=256, out_features=256, bias=True)
        (proj_drop): Dropout(p=0.0, inplace=False)
        (attns): ModuleList(
          (0): LePEAttention(
            (get_v): Conv2d(128, 128, kernel_size=(3, 3), stride=(1, 1), padding=(1, 1), groups=128)
            (attn_drop): Dropout(p=0.0, inplace=False)
          )
          (1): LePEAttention(
            (get_v): Conv2d(128, 128, kernel_size=(3, 3), stride=(1, 1), padding=(1, 1), groups=128)
            (attn_drop): Dropout(p=0.0, inplace=False)
          )
        )
        (drop_path): DropPath()
        (mlp): Mlp(
          (fc1): Linear(in_features=256, out_features=1024, bias=True)
          (act): GELU()
          (fc2): Linear(in_features=1024, out_features=256, bias=True)
          (drop): Dropout(p=0.0, inplace=False)
        )
        (norm2): LayerNorm((256,), eps=1e-05, elementwise_affine=True)
      )
      (9): CSWinBlock(
        (qkv): Linear(in_features=256, out_features=768, bias=True)
        (norm1): LayerNorm((256,), eps=1e-05, elementwise_affine=True)
        (proj): Linear(in_features=256, out_features=256, bias=True)
        (proj_drop): Dropout(p=0.0, inplace=False)
        (attns): ModuleList(
          (0): LePEAttention(
            (get_v): Conv2d(128, 128, kernel_size=(3, 3), stride=(1, 1), padding=(1, 1), groups=128)
            (attn_drop): Dropout(p=0.0, inplace=False)
          )
          (1): LePEAttention(
            (get_v): Conv2d(128, 128, kernel_size=(3, 3), stride=(1, 1), padding=(1, 1), groups=128)
            (attn_drop): Dropout(p=0.0, inplace=False)
          )
        )
        (drop_path): DropPath()
        (mlp): Mlp(
          (fc1): Linear(in_features=256, out_features=1024, bias=True)
          (act): GELU()
          (fc2): Linear(in_features=1024, out_features=256, bias=True)
          (drop): Dropout(p=0.0, inplace=False)
        )
        (norm2): LayerNorm((256,), eps=1e-05, elementwise_affine=True)
      )
      (10): CSWinBlock(
        (qkv): Linear(in_features=256, out_features=768, bias=True)
        (norm1): LayerNorm((256,), eps=1e-05, elementwise_affine=True)
        (proj): Linear(in_features=256, out_features=256, bias=True)
        (proj_drop): Dropout(p=0.0, inplace=False)
        (attns): ModuleList(
          (0): LePEAttention(
            (get_v): Conv2d(128, 128, kernel_size=(3, 3), stride=(1, 1), padding=(1, 1), groups=128)
            (attn_drop): Dropout(p=0.0, inplace=False)
          )
          (1): LePEAttention(
            (get_v): Conv2d(128, 128, kernel_size=(3, 3), stride=(1, 1), padding=(1, 1), groups=128)
            (attn_drop): Dropout(p=0.0, inplace=False)
          )
        )
        (drop_path): DropPath()
        (mlp): Mlp(
          (fc1): Linear(in_features=256, out_features=1024, bias=True)
          (act): GELU()
          (fc2): Linear(in_features=1024, out_features=256, bias=True)
          (drop): Dropout(p=0.0, inplace=False)
        )
        (norm2): LayerNorm((256,), eps=1e-05, elementwise_affine=True)
      )
      (11): CSWinBlock(
        (qkv): Linear(in_features=256, out_features=768, bias=True)
        (norm1): LayerNorm((256,), eps=1e-05, elementwise_affine=True)
        (proj): Linear(in_features=256, out_features=256, bias=True)
        (proj_drop): Dropout(p=0.0, inplace=False)
        (attns): ModuleList(
          (0): LePEAttention(
            (get_v): Conv2d(128, 128, kernel_size=(3, 3), stride=(1, 1), padding=(1, 1), groups=128)
            (attn_drop): Dropout(p=0.0, inplace=False)
          )
          (1): LePEAttention(
            (get_v): Conv2d(128, 128, kernel_size=(3, 3), stride=(1, 1), padding=(1, 1), groups=128)
            (attn_drop): Dropout(p=0.0, inplace=False)
          )
        )
        (drop_path): DropPath()
        (mlp): Mlp(
          (fc1): Linear(in_features=256, out_features=1024, bias=True)
          (act): GELU()
          (fc2): Linear(in_features=1024, out_features=256, bias=True)
          (drop): Dropout(p=0.0, inplace=False)
        )
        (norm2): LayerNorm((256,), eps=1e-05, elementwise_affine=True)
      )
      (12): CSWinBlock(
        (qkv): Linear(in_features=256, out_features=768, bias=True)
        (norm1): LayerNorm((256,), eps=1e-05, elementwise_affine=True)
        (proj): Linear(in_features=256, out_features=256, bias=True)
        (proj_drop): Dropout(p=0.0, inplace=False)
        (attns): ModuleList(
          (0): LePEAttention(
            (get_v): Conv2d(128, 128, kernel_size=(3, 3), stride=(1, 1), padding=(1, 1), groups=128)
            (attn_drop): Dropout(p=0.0, inplace=False)
          )
          (1): LePEAttention(
            (get_v): Conv2d(128, 128, kernel_size=(3, 3), stride=(1, 1), padding=(1, 1), groups=128)
            (attn_drop): Dropout(p=0.0, inplace=False)
          )
        )
        (drop_path): DropPath()
        (mlp): Mlp(
          (fc1): Linear(in_features=256, out_features=1024, bias=True)
          (act): GELU()
          (fc2): Linear(in_features=1024, out_features=256, bias=True)
          (drop): Dropout(p=0.0, inplace=False)
        )
        (norm2): LayerNorm((256,), eps=1e-05, elementwise_affine=True)
      )
      (13): CSWinBlock(
        (qkv): Linear(in_features=256, out_features=768, bias=True)
        (norm1): LayerNorm((256,), eps=1e-05, elementwise_affine=True)
        (proj): Linear(in_features=256, out_features=256, bias=True)
        (proj_drop): Dropout(p=0.0, inplace=False)
        (attns): ModuleList(
          (0): LePEAttention(
            (get_v): Conv2d(128, 128, kernel_size=(3, 3), stride=(1, 1), padding=(1, 1), groups=128)
            (attn_drop): Dropout(p=0.0, inplace=False)
          )
          (1): LePEAttention(
            (get_v): Conv2d(128, 128, kernel_size=(3, 3), stride=(1, 1), padding=(1, 1), groups=128)
            (attn_drop): Dropout(p=0.0, inplace=False)
          )
        )
        (drop_path): DropPath()
        (mlp): Mlp(
          (fc1): Linear(in_features=256, out_features=1024, bias=True)
          (act): GELU()
          (fc2): Linear(in_features=1024, out_features=256, bias=True)
          (drop): Dropout(p=0.0, inplace=False)
        )
        (norm2): LayerNorm((256,), eps=1e-05, elementwise_affine=True)
      )
      (14): CSWinBlock(
        (qkv): Linear(in_features=256, out_features=768, bias=True)
        (norm1): LayerNorm((256,), eps=1e-05, elementwise_affine=True)
        (proj): Linear(in_features=256, out_features=256, bias=True)
        (proj_drop): Dropout(p=0.0, inplace=False)
        (attns): ModuleList(
          (0): LePEAttention(
            (get_v): Conv2d(128, 128, kernel_size=(3, 3), stride=(1, 1), padding=(1, 1), groups=128)
            (attn_drop): Dropout(p=0.0, inplace=False)
          )
          (1): LePEAttention(
            (get_v): Conv2d(128, 128, kernel_size=(3, 3), stride=(1, 1), padding=(1, 1), groups=128)
            (attn_drop): Dropout(p=0.0, inplace=False)
          )
        )
        (drop_path): DropPath()
        (mlp): Mlp(
          (fc1): Linear(in_features=256, out_features=1024, bias=True)
          (act): GELU()
          (fc2): Linear(in_features=1024, out_features=256, bias=True)
          (drop): Dropout(p=0.0, inplace=False)
        )
        (norm2): LayerNorm((256,), eps=1e-05, elementwise_affine=True)
      )
      (15): CSWinBlock(
        (qkv): Linear(in_features=256, out_features=768, bias=True)
        (norm1): LayerNorm((256,), eps=1e-05, elementwise_affine=True)
        (proj): Linear(in_features=256, out_features=256, bias=True)
        (proj_drop): Dropout(p=0.0, inplace=False)
        (attns): ModuleList(
          (0): LePEAttention(
            (get_v): Conv2d(128, 128, kernel_size=(3, 3), stride=(1, 1), padding=(1, 1), groups=128)
            (attn_drop): Dropout(p=0.0, inplace=False)
          )
          (1): LePEAttention(
            (get_v): Conv2d(128, 128, kernel_size=(3, 3), stride=(1, 1), padding=(1, 1), groups=128)
            (attn_drop): Dropout(p=0.0, inplace=False)
          )
        )
        (drop_path): DropPath()
        (mlp): Mlp(
          (fc1): Linear(in_features=256, out_features=1024, bias=True)
          (act): GELU()
          (fc2): Linear(in_features=1024, out_features=256, bias=True)
          (drop): Dropout(p=0.0, inplace=False)
        )
        (norm2): LayerNorm((256,), eps=1e-05, elementwise_affine=True)
      )
      (16): CSWinBlock(
        (qkv): Linear(in_features=256, out_features=768, bias=True)
        (norm1): LayerNorm((256,), eps=1e-05, elementwise_affine=True)
        (proj): Linear(in_features=256, out_features=256, bias=True)
        (proj_drop): Dropout(p=0.0, inplace=False)
        (attns): ModuleList(
          (0): LePEAttention(
            (get_v): Conv2d(128, 128, kernel_size=(3, 3), stride=(1, 1), padding=(1, 1), groups=128)
            (attn_drop): Dropout(p=0.0, inplace=False)
          )
          (1): LePEAttention(
            (get_v): Conv2d(128, 128, kernel_size=(3, 3), stride=(1, 1), padding=(1, 1), groups=128)
            (attn_drop): Dropout(p=0.0, inplace=False)
          )
        )
        (drop_path): DropPath()
        (mlp): Mlp(
          (fc1): Linear(in_features=256, out_features=1024, bias=True)
          (act): GELU()
          (fc2): Linear(in_features=1024, out_features=256, bias=True)
          (drop): Dropout(p=0.0, inplace=False)
        )
        (norm2): LayerNorm((256,), eps=1e-05, elementwise_affine=True)
      )
      (17): CSWinBlock(
        (qkv): Linear(in_features=256, out_features=768, bias=True)
        (norm1): LayerNorm((256,), eps=1e-05, elementwise_affine=True)
        (proj): Linear(in_features=256, out_features=256, bias=True)
        (proj_drop): Dropout(p=0.0, inplace=False)
        (attns): ModuleList(
          (0): LePEAttention(
            (get_v): Conv2d(128, 128, kernel_size=(3, 3), stride=(1, 1), padding=(1, 1), groups=128)
            (attn_drop): Dropout(p=0.0, inplace=False)
          )
          (1): LePEAttention(
            (get_v): Conv2d(128, 128, kernel_size=(3, 3), stride=(1, 1), padding=(1, 1), groups=128)
            (attn_drop): Dropout(p=0.0, inplace=False)
          )
        )
        (drop_path): DropPath()
        (mlp): Mlp(
          (fc1): Linear(in_features=256, out_features=1024, bias=True)
          (act): GELU()
          (fc2): Linear(in_features=1024, out_features=256, bias=True)
          (drop): Dropout(p=0.0, inplace=False)
        )
        (norm2): LayerNorm((256,), eps=1e-05, elementwise_affine=True)
      )
      (18): CSWinBlock(
        (qkv): Linear(in_features=256, out_features=768, bias=True)
        (norm1): LayerNorm((256,), eps=1e-05, elementwise_affine=True)
        (proj): Linear(in_features=256, out_features=256, bias=True)
        (proj_drop): Dropout(p=0.0, inplace=False)
        (attns): ModuleList(
          (0): LePEAttention(
            (get_v): Conv2d(128, 128, kernel_size=(3, 3), stride=(1, 1), padding=(1, 1), groups=128)
            (attn_drop): Dropout(p=0.0, inplace=False)
          )
          (1): LePEAttention(
            (get_v): Conv2d(128, 128, kernel_size=(3, 3), stride=(1, 1), padding=(1, 1), groups=128)
            (attn_drop): Dropout(p=0.0, inplace=False)
          )
        )
        (drop_path): DropPath()
        (mlp): Mlp(
          (fc1): Linear(in_features=256, out_features=1024, bias=True)
          (act): GELU()
          (fc2): Linear(in_features=1024, out_features=256, bias=True)
          (drop): Dropout(p=0.0, inplace=False)
        )
        (norm2): LayerNorm((256,), eps=1e-05, elementwise_affine=True)
      )
      (19): CSWinBlock(
        (qkv): Linear(in_features=256, out_features=768, bias=True)
        (norm1): LayerNorm((256,), eps=1e-05, elementwise_affine=True)
        (proj): Linear(in_features=256, out_features=256, bias=True)
        (proj_drop): Dropout(p=0.0, inplace=False)
        (attns): ModuleList(
          (0): LePEAttention(
            (get_v): Conv2d(128, 128, kernel_size=(3, 3), stride=(1, 1), padding=(1, 1), groups=128)
            (attn_drop): Dropout(p=0.0, inplace=False)
          )
          (1): LePEAttention(
            (get_v): Conv2d(128, 128, kernel_size=(3, 3), stride=(1, 1), padding=(1, 1), groups=128)
            (attn_drop): Dropout(p=0.0, inplace=False)
          )
        )
        (drop_path): DropPath()
        (mlp): Mlp(
          (fc1): Linear(in_features=256, out_features=1024, bias=True)
          (act): GELU()
          (fc2): Linear(in_features=1024, out_features=256, bias=True)
          (drop): Dropout(p=0.0, inplace=False)
        )
        (norm2): LayerNorm((256,), eps=1e-05, elementwise_affine=True)
      )
      (20): CSWinBlock(
        (qkv): Linear(in_features=256, out_features=768, bias=True)
        (norm1): LayerNorm((256,), eps=1e-05, elementwise_affine=True)
        (proj): Linear(in_features=256, out_features=256, bias=True)
        (proj_drop): Dropout(p=0.0, inplace=False)
        (attns): ModuleList(
          (0): LePEAttention(
            (get_v): Conv2d(128, 128, kernel_size=(3, 3), stride=(1, 1), padding=(1, 1), groups=128)
            (attn_drop): Dropout(p=0.0, inplace=False)
          )
          (1): LePEAttention(
            (get_v): Conv2d(128, 128, kernel_size=(3, 3), stride=(1, 1), padding=(1, 1), groups=128)
            (attn_drop): Dropout(p=0.0, inplace=False)
          )
        )
        (drop_path): DropPath()
        (mlp): Mlp(
          (fc1): Linear(in_features=256, out_features=1024, bias=True)
          (act): GELU()
          (fc2): Linear(in_features=1024, out_features=256, bias=True)
          (drop): Dropout(p=0.0, inplace=False)
        )
        (norm2): LayerNorm((256,), eps=1e-05, elementwise_affine=True)
      )
    )
    (merge3): Merge_Block(
      (conv): Conv2d(256, 512, kernel_size=(3, 3), stride=(2, 2), padding=(1, 1))
      (norm): LayerNorm((512,), eps=1e-05, elementwise_affine=True)
    )
    (stage4): ModuleList(
      (0): CSWinBlock(
        (qkv): Linear(in_features=512, out_features=1536, bias=True)
        (norm1): LayerNorm((512,), eps=1e-05, elementwise_affine=True)
        (proj): Linear(in_features=512, out_features=512, bias=True)
        (proj_drop): Dropout(p=0.0, inplace=False)
        (attns): ModuleList(
          (0): LePEAttention(
            (get_v): Conv2d(512, 512, kernel_size=(3, 3), stride=(1, 1), padding=(1, 1), groups=512)
            (attn_drop): Dropout(p=0.0, inplace=False)
          )
        )
        (drop_path): DropPath()
        (mlp): Mlp(
          (fc1): Linear(in_features=512, out_features=2048, bias=True)
          (act): GELU()
          (fc2): Linear(in_features=2048, out_features=512, bias=True)
          (drop): Dropout(p=0.0, inplace=False)
        )
        (norm2): LayerNorm((512,), eps=1e-05, elementwise_affine=True)
      )
    )
    (norm4): LayerNorm((512,), eps=1e-05, elementwise_affine=True)
  )
  (decode_head): UPerHead(
    input_transform=multiple_select, ignore_index=255, align_corners=False
    (loss_decode): ModuleList(
      (0): CrossEntropyLoss()
    )
    (conv_seg): Conv2d(512, 11, kernel_size=(1, 1), stride=(1, 1))
    (dropout): Dropout2d(p=0.1, inplace=False)
    (psp_modules): PPM(
      (0): Sequential(
        (0): AdaptiveAvgPool2d(output_size=1)
        (1): ConvModule(
          (conv): Conv2d(512, 512, kernel_size=(1, 1), stride=(1, 1), bias=False)
          (bn): _BatchNormXd(512, eps=1e-05, momentum=0.1, affine=True, track_running_stats=True)
          (activate): ReLU(inplace=True)
        )
      )
      (1): Sequential(
        (0): AdaptiveAvgPool2d(output_size=2)
        (1): ConvModule(
          (conv): Conv2d(512, 512, kernel_size=(1, 1), stride=(1, 1), bias=False)
          (bn): _BatchNormXd(512, eps=1e-05, momentum=0.1, affine=True, track_running_stats=True)
          (activate): ReLU(inplace=True)
        )
      )
      (2): Sequential(
        (0): AdaptiveAvgPool2d(output_size=3)
        (1): ConvModule(
          (conv): Conv2d(512, 512, kernel_size=(1, 1), stride=(1, 1), bias=False)
          (bn): _BatchNormXd(512, eps=1e-05, momentum=0.1, affine=True, track_running_stats=True)
          (activate): ReLU(inplace=True)
        )
      )
      (3): Sequential(
        (0): AdaptiveAvgPool2d(output_size=6)
        (1): ConvModule(
          (conv): Conv2d(512, 512, kernel_size=(1, 1), stride=(1, 1), bias=False)
          (bn): _BatchNormXd(512, eps=1e-05, momentum=0.1, affine=True, track_running_stats=True)
          (activate): ReLU(inplace=True)
        )
      )
    )
    (bottleneck): ConvModule(
      (conv): Conv2d(2560, 512, kernel_size=(3, 3), stride=(1, 1), padding=(1, 1), bias=False)
      (bn): _BatchNormXd(512, eps=1e-05, momentum=0.1, affine=True, track_running_stats=True)
      (activate): ReLU(inplace=True)
    )
    (lateral_convs): ModuleList(
      (0): ConvModule(
        (conv): Conv2d(64, 512, kernel_size=(1, 1), stride=(1, 1), bias=False)
        (bn): _BatchNormXd(512, eps=1e-05, momentum=0.1, affine=True, track_running_stats=True)
        (activate): ReLU()
      )
      (1): ConvModule(
        (conv): Conv2d(128, 512, kernel_size=(1, 1), stride=(1, 1), bias=False)
        (bn): _BatchNormXd(512, eps=1e-05, momentum=0.1, affine=True, track_running_stats=True)
        (activate): ReLU()
      )
      (2): ConvModule(
        (conv): Conv2d(256, 512, kernel_size=(1, 1), stride=(1, 1), bias=False)
        (bn): _BatchNormXd(512, eps=1e-05, momentum=0.1, affine=True, track_running_stats=True)
        (activate): ReLU()
      )
    )
    (fpn_convs): ModuleList(
      (0): ConvModule(
        (conv): Conv2d(512, 512, kernel_size=(3, 3), stride=(1, 1), padding=(1, 1), bias=False)
        (bn): _BatchNormXd(512, eps=1e-05, momentum=0.1, affine=True, track_running_stats=True)
        (activate): ReLU()
      )
      (1): ConvModule(
        (conv): Conv2d(512, 512, kernel_size=(3, 3), stride=(1, 1), padding=(1, 1), bias=False)
        (bn): _BatchNormXd(512, eps=1e-05, momentum=0.1, affine=True, track_running_stats=True)
        (activate): ReLU()
      )
      (2): ConvModule(
        (conv): Conv2d(512, 512, kernel_size=(3, 3), stride=(1, 1), padding=(1, 1), bias=False)
        (bn): _BatchNormXd(512, eps=1e-05, momentum=0.1, affine=True, track_running_stats=True)
        (activate): ReLU()
      )
    )
    (fpn_bottleneck): ConvModule(
      (conv): Conv2d(2048, 512, kernel_size=(3, 3), stride=(1, 1), padding=(1, 1), bias=False)
      (bn): _BatchNormXd(512, eps=1e-05, momentum=0.1, affine=True, track_running_stats=True)
      (activate): ReLU(inplace=True)
    )
  )
  init_cfg={'type': 'Normal', 'std': 0.01, 'override': {'name': 'conv_seg'}}
  (auxiliary_head): FCNHead(
    input_transform=None, ignore_index=255, align_corners=False
    (loss_decode): ModuleList(
      (0): CrossEntropyLoss()
    )
    (conv_seg): Conv2d(256, 11, kernel_size=(1, 1), stride=(1, 1))
    (dropout): Dropout2d(p=0.1, inplace=False)
    (convs): Sequential(
      (0): ConvModule(
        (conv): Conv2d(256, 256, kernel_size=(3, 3), stride=(1, 1), padding=(1, 1), bias=False)
        (bn): _BatchNormXd(256, eps=1e-05, momentum=0.1, affine=True, track_running_stats=True)
        (activate): ReLU(inplace=True)
      )
    )
  )
  init_cfg={'type': 'Normal', 'std': 0.01, 'override': {'name': 'conv_seg'}}
)
2021-10-25 02:37:29,137 - mmseg - INFO - Loaded 2617 images
2021-10-25 02:37:35,337 - mmseg - INFO - Loaded 655 images
…
